1_5_CNN_Layers/saved_models/fashion_net_simple.pt (torch_old, 28697 bytes, 6 tensors)

conv1.weight f4 [10, 1, 3, 3]
0	0x3ec9d56f	0.3942065
1	0x3ed7521b	0.4205483
2	0x3e45cc36	0.19316182
3	0x3ee4295c	0.44562805
4	0x3ee636bf	0.44963643
5	0x3eec2d30	0.46128225
6	0x3ec4dc2e	0.38449234
7	0x3d9b55ca	0.07584722
8	0x3e4b5ef3	0.19860439
9	0x3d6209a3	0.05518497
10	0xbe2c5ce1	-0.16832305
11	0x3e4dee8a	0.20110527
12	0xbe3aaf88	-0.18231022
13	0xbea55740	-0.3229313
14	0xbdc8722a	-0.097874
15	0x3ec4246f	0.38309047
16	0x3ca1ce2c	0.01975163
17	0xbb53ec2e	-0.003233682
18	0xbe98b3aa	-0.29824573
19	0xbec395be	-0.38200182
20	0x3ea987ae	0.33111328
21	0xbee9b5f0	-0.4564662
22	0xbe380ab9	-0.1797284
23	0x3e8fb611	0.28068593
24	0xbe5b4a72	-0.21415117
25	0x3de33a07	0.11095052
26	0x3db291f2	0.08719243
27	0xbe620c44	-0.22074991
28	0xbe0b91fb	-0.13629906
29	0x3caae36c	0.020860396
30	0x3e6b077f	0.22952078
31	0xba85f997	-0.0010221478
32	0xbe7a9a8c	-0.24473017
33	0x3dde9d8e	0.10869895
34	0x3e8e154c	0.27750623
35	0x3de1f52b	0.1103309
36	0xbea6b3a6	-0.32558936
37	0xbea8f193	-0.32996807
38	0xbcb6df29	-0.022323208
39	0x3d881095	0.06643788
40	0xbd9aab49	-0.07552201
41	0xbd58f8ba	-0.05297158
42	0x3ea874a8	0.32901502
43	0x3d1f3fbb	0.038879137
44	0xbea1cad5	-0.3160006
45	0x3ddef296	0.10886113
46	0xbd83f9e5	-0.06444148
47	0xbe0b12f7	-0.13581453
48	0x3e39f7f8	0.18160999
49	0x3db2a5c9	0.08723027
50	0xbe2ee0a6	-0.17077884
51	0xbde854b9	-0.113442846
52	0xbe28ef4f	-0.16497539
53	0xbeeb9731	-0.46013787
54	0xbee11391	-0.4396024
55	0xbe873511	-0.26407674
56	0x3ef5ca51	0.48005918
57	0xbdafdffb	-0.08587643
58	0xbd5fd85d	-0.0546497
59	0x3e34a15c	0.17639679
60	0xbe880f56	-0.265742
61	0xbe0ef4c0	-0.13960552
62	0x3ed943d7	0.4243457
63	0x3f2c33cb	0.6726653
64	0x3f6f61ff	0.93508905
65	0x3f543910	0.8289957
66	0x3f25e092	0.6479579
67	0x3f025185	0.5090564
68	0x3f40bf5a	0.7529198
69	0x3f1caacd	0.6119812
70	0x3e8a5c66	0.2702362
71	0x3f18c3ba	0.59673655
72	0xbebc0163	-0.36719808
73	0x3df9cd9a	0.121974185
74	0x3ec9e66b	0.39433607
75	0x3d41f87d	0.047356118
76	0x3e2958d3	0.1653779
77	0xbe416a3d	-0.18888183
78	0x3ed0ccda	0.4078129
79	0xbe5c9f96	-0.21545252
80	0x3d95094b	0.07277163
81	0xbef7f286	-0.48427218
82	0x3eddbbdb	0.43307385
83	0xbbf2c01d	-0.0074081556
84	0xbee61287	-0.4493601
85	0x3e9f735e	0.31142706
86	0x3ec34179	0.3813589
87	0xbecf90f2	-0.40540272
88	0x3ec3902b	0.3819593
89	0x3e9d568c	0.30730093

conv1.bias f4 [10]
0	0x3dcf113a	0.101107076
1	0x3eacdaad	0.33760586
2	0x3eee64f1	0.46561387
3	0xbe039604	-0.12850195
4	0x3e90016a	0.2812608
5	0x3ec70873	0.38873634
6	0x3e0f4cfd	0.13994212
7	0x3d32e6df	0.043677207
8	0xbdfc5e8b	-0.1232272
9	0x3a4d5640	0.00078329816

conv2.weight f4 [20, 10, 3, 3]
0	0xbd62f036	-0.055404864
1	0x3d9e9921	0.07744051
2	0x3dbbf7aa	0.091780975
3	0xbe02fad4	-0.12790996
4	0xbdd1daa2	-0.10246779
5	0x3dbb1b60	0.09136081
6	0xbe2d7170	-0.16937804
7	0x3d3258ce	0.043541722
8	0x3e0da8c3	0.13833909
9	0xbd926127	-0.071474366
10	0x3c8d1a1f	0.01722437
11	0x3dbfc23e	0.09363221
12	0x3d9d7d1b	0.076898776
13	0xbd53f504	-0.051747337
14	0xbda4efa9	-0.08053524
15	0x3d600757	0.0546945
16	0xbcc1482f	-0.02359399
17	0xbde256f9	-0.11051745
18	0xbdc4c30b	-0.09607514
19	0xbc9c6f7a	-0.019096125
20	0x3dd87b24	0.10570362
21	0x3d88171c	0.06645033
22	0x3dd0a4e0	0.101876974
23	0x3d936b7e	0.07198237
24	0xbd0c96bf	-0.03432345
25	0xbcc2e199	-0.023789214
26	0x3dcf8c92	0.101342335
27	0x3d610ed3	0.054945778
28	0x3cd6bb24	0.026212282
29	0x3ca1fcfb	0.01977395
30	0x3c6c42f4	0.01442026
31	0xbdc47e2c	-0.09594378
32	0xbdc9e92f	-0.09858929
33	0x3daca173	0.084292315
34	0xbda2284d	-0.07917843
35	0xbd46a633	-0.048498344
36	0xbdaa2aec	-0.08308968
37	0xbc33dafd	-0.010977504
38	0x3db15696	0.08659093
39	0x3bf65094	0.00751693
40	0x3d4e1e74	0.05032201
41	0xbd24d57f	-0.04024267
42	0x3de40ee9	0.111356564
43	0x3b87ca3e	0.004143982
44	0xbcb3ae3a	-0.021933664
45	0xbcbd42ac	-0.02310308
46	0xbbb6059e	-0.005554869
47	0xbde0c574	-0.10975161
48	0xbbecbfa3	-0.0072249933
49	0x3d119387	0.035541084
50	0xbde74b11	-0.11293615
51	0x3deb970a	0.11503418
52	0x3d9034aa	0.07041295
53	0x3d0efb08	0.03490737
54	0x3dd95f23	0.10613849
55	0x3c94f6ef	0.018184153
56	0x3c67bef0	0.014144644
57	0x3d23b688	0.039968997
58	0x3de1644a	0.11005457
59	0x3e07025c	0.13184494
60	0xbd8c11fb	-0.06839367
61	0x3e1543a7	0.14576589
62	0xbc2735ab	-0.010205667
63	0x3cf37ee3	0.02972359
64	0x3e2bab54	0.16764575
65	0x3e0a176b	0.13485496
66	0xbe8ee047	-0.27905485
67	0x3d8b1077	0.0679025
68	0x3d7905a2	0.060796387
69	0xbe83a6c7	-0.2571318
70	0xbd74a79c	-0.059730157
71	0x3e15052d	0.14552756
72	0xbc55802a	-0.013031045
73	0xbdd6f2a6	-0.104955
74	0xbd591a91	-0.05300385
75	0xbdb9001f	-0.09033226
76	0xbcf950ca	-0.030434031
77	0x3d865b47	0.065603785
78	0xbd9b9657	-0.075970344
79	0xbda26a69	-0.079304524
80	0x3dee6894	0.116410404
81	0x3d16d59b	0.036824804
82	0xbd1610a8	-0.03663698
83	0x3dd47073	0.103730105
84	0xbdc74b63	-0.09731176
85	0x3df42edc	0.11923
86	0xbd09d502	-0.033650406
87	0xbe0841f3	-0.13306408
88	0x3b05d71a	0.00204224
89	0x3dcb075f	0.09913515
90	0xbe6d7a21	-0.2319112
91	0xbe3a0bf0	-0.18168616
92	0xbd8f816d	-0.07007108
93	0xbc88593e	-0.016644116
94	0xbdb94596	-0.090464756
95	0x3d503cc8	0.050839216
96	0xbbe7d4ed	-0.0070749433
97	0x3cf7fa49	0.030270712
98	0x3db39074	0.087677866
99	0x3c65f1c9	0.014034697
100	0x3d42d855	0.04756959
101	0x3d40b75a	0.047049858
102	0x3b9a1e5b	0.0047033257
103	0x3d476852	0.048683472
104	0x3dbe5a22	0.09294535
105	0x3d815c8c	0.0631648
106	0x3dd6b045	0.104828395
107	0xbd932b78	-0.071860254
108	0x3d1c7c2c	0.038204357
109	0x3cb9b14a	0.022667546
110	0xbd73e23c	-0.059541926
111	0x3decf7f1	0.115707286
112	0x3dfaf06d	0.12252889
113	0x3d14ef2f	0.036360916
114	0x3b730efb	0.0037087786
115	0x3d2cb1a1	0.042161588
116	0x3ddd0320	0.10791612
117	0xbc96df08	-0.018416896
118	0x3d375b06	0.04476454
119	0x3c0550b1	0.008136914
120	0xbd02d480	-0.031940937
121	0x3d88ec44	0.06685689
122	0x3ce5594f	0.027996687
123	0x3d83ddb6	0.064387724
124	0xbd348454	-0.04407151
125	0xbdb38d47	-0.08767181
126	0x3d60cc49	0.05488232
127	0xbd492402	-0.049106605
128	0x3d18b343	0.037280332
129	0x3da89634	0.08231774
130	0x3d9b19ef	0.07573306
131	0x3dc4680a	0.095901564
132	0xbcf5f9bf	-0.030026315
133	0xbc5c5973	-0.013449061
134	0xbc6ca025	-0.014442478
135	0x3d9e60c5	0.07733301
136	0xbd907adb	-0.07054683
137	0x3d7a2f23	0.06108011
138	0xbc73337f	-0.014843821
139	0xbde0295b	-0.10945388
140	0xbc8a8232	-0.016907785
141	0xbc9a37bb	-0.018825402
142	0x3d96c2dd	0.07361386
143	0xbd32eaf5	-0.043681104
144	0xbd934ecc	-0.07192764
145	0x3e21e13b	0.15808575
146	0xbd465bf5	-0.04842754
147	0xbd666d58	-0.056256622
148	0x3e1e4c4c	0.15458792
149	0x3c90d6f5	0.017680624
150	0xbc2c8b60	-0.010531276
151	0x3d3d1c62	0.046169646
152	0x3daabcb2	0.08336772
153	0xbe92e0e0	-0.2868719
154	0xbdeaa97f	-0.1145811
155	0x3d50df0f	0.050993975
156	0xbe9ef2a7	-0.31044504
157	0x3d2492dd	0.040179122
158	0x3cb15731	0.021648021
159	0xbd6a6e52	-0.057234116
160	0x3e147541	0.14497854
161	0x3e9ac6fc	0.30229938
162	0xbbf5daa4	-0.0075028706
163	0x3dcb766f	0.09934699
164	0x3d9e42ee	0.077276096
165	0xbd2f1c53	-0.04275162
166	0x3c3844b4	0.011246849
167	0xbd529eaa	-0.051420845
168	0xbd443127	-0.047898438
169	0xbd0baab7	-0.034098353
170	0x3dc314aa	0.09525426
171	0xbde650ad	-0.112458564
172	0x3ddd67c3	0.108108066
173	0x3dcab968	0.09898645
174	0xbd348fd3	-0.044082474
175	0x3e07e192	0.13269642
176	0x3c1fa20b	0.009743224
177	0xbded90b9	-0.11599869
178	0x3e5c167a	0.21492949
179	0x3d961242	0.07327701
180	0x3d44f8b5	0.048088748
181	0xbc09028b	-0.008362423
182	0xbc8a5e89	-0.016890781
183	0xbc5404ee	-0.012940628
184	0xbd035bc2	-0.03206993
185	0xbd4d9f74	-0.050200894
186	0xbc63f6b8	-0.013913803
187	0x3d849152	0.0647303
188	0x3dafab7d	0.08577631
189	0x3d2d2cf2	0.04227919
190	0xbcce1550	-0.025156647
191	0x3d45fd52	0.04833729
192	0xbd28b736	-0.04119035
193	0xbd68aa46	-0.05680301
194	0x3c8fcfea	0.017555196
195	0xbda8c77c	-0.082411736
196	0x3c1d7f3e	0.009612856
197	0xbd3b7169	-0.045762453
198	0x3bf2881b	0.007401479
199	0x3dc5635f	0.09638094
200	0x3d7b4c62	0.06135214
201	0xbdeeaf2b	-0.116545044
202	0x3d220b72	0.039561696
203	0xbdc8726b	-0.097874485
204	0xbcb1bf86	-0.02169777
205	0xbc8ff40f	-0.01757243
206	0x3d12dc97	0.035854902
207	0x3d3cadf6	0.04606434
208	0x3ce562f6	0.02800129
209	0x3d5a4264	0.05328597
210	0xbcfa01ab	-0.030518373
211	0xbc51108f	-0.0127602955
212	0xbce01342	-0.027352933
213	0x3d88e37b	0.066840135
214	0x3d833150	0.0640589
215	0xbdc42909	-0.09578139
216	0xbcd003ee	-0.025392499
217	0x3d8207f2	0.06349172
218	0xbd8ec693	-0.06971469
219	0x3d17a1ba	0.03701947
220	0x3daf7ca2	0.08568694
221	0x3d9c599b	0.076342784
222	0xbd6487c3	-0.055793535
223	0x3dba0e7d	0.09084795
224	0xbd15a665	-0.03653564
225	0xbdb356d2	-0.08756794
226	0x3bfb1d93	0.0076634376
227	0xbdcad91d	-0.09904692
228	0x3da1d58e	0.079020604
229	0xbdc698a9	-0.09697086
230	0xbde20ef4	-0.11038008
231	0x3dd4e222	0.10394694
232	0x3d6858e5	0.0567254
233	0xbda2fa7f	-0.079579346
234	0xbdc87e26	-0.09789686
235	0xbd797c74	-0.060909703
236	0x3d25c709	0.040473018
237	0xbdc55f02	-0.09637262
238	0xbd61e14b	-0.055146497
239	0xbddb2e52	-0.10702194
240	0xbccbf841	-0.02489865
241	0xbcfa62e4	-0.030564733
242	0x3d7db6c7	0.06194189
243	0x3e040916	0.12894091
244	0xbd92a639	-0.07160611
245	0xbc684d70	-0.014178619
246	0x3d25dba1	0.040492658
247	0x3ddb690d	0.10713396
248	0xbb8901d5	-0.0041811266
249	0xbd9f1caa	-0.07769139
250	0xbcc62980	-0.02418971
251	0x3cb0b851	0.021572264
252	0x3c8d59ad	0.017254675
253	0x3d878759	0.066176124
254	0xbdd09ab6	-0.10185759
255	0xbac63c78	-0.0015124222

conv2.bias f4 [20]
0	0xbcbeec95	-0.02330617
1	0x3ddf88f6	0.10914795
2	0xbddd1236	-0.10794489
3	0xbd1261d4	-0.035737827
4	0xbd8f94a4	-0.07010773
5	0x3e1ac56b	0.15114371
6	0xba3973f1	-0.00070744666
7	0x3e046493	0.12928991
8	0x3dd2e6cd	0.10297928
9	0xbad90b55	-0.0016559163
10	0x3e032743	0.12807946
11	0x3c87aa1d	0.016560609
12	0x3d8070d7	0.062715225
13	0x3dc2891d	0.094988085
14	0xbd90c772	-0.07069291
15	0x3c178b12	0.009249466
16	0xbd800e1b	-0.062526904
17	0xbddd053d	-0.10792015
18	0xbdcf868b	-0.10133084
19	0x3cb9db47	0.022687567

fc1.weight f4 [10, 500]
0	0xbcf46c71	-0.029836865
1	0x3c9e0d72	0.01929352
2	0x3d69b321	0.057055596
3	0x3c30efc7	0.010799355
4	0x3d969a2d	0.073536254
5	0xbd1108f4	-0.03540893
6	0xbcf4313f	-0.029808639
7	0x3d3a6299	0.045504186
8	0x3c40addf	0.011760204
9	0x3d9188c3	0.07106163
10	0xbca61536	-0.020273786
11	0x3c572513	0.013131398
12	0x3d28a2c9	0.04117087
13	0x3d1cda00	0.03829384
14	0x3cd8842a	0.026430208
15	0x3d5d0770	0.05396217
16	0xbb5a8640	-0.003334418
17	0xbc3c1c2d	-0.011481327
18	0x3c05af73	0.008159506
19	0xbc05cd03	-0.008166554
20	0x3d8a77b5	0.067611136
21	0xbbcf2ce4	-0.00632249
22	0xbd0c52ae	-0.034258537
23	0x3ba045ee	0.004891149
24	0xbd98f6a5	-0.07468919
25	0x3c90fad0	0.017697722
26	0xbd4547bd	-0.048164118
27	0x3d035a00	0.032068253
28	0x3daed1d5	0.08536116
29	0x3d75b3fc	0.0599861
30	0xba2bef25	-0.00065587676
31	0x3d68c35f	0.056826945
32	0x3d9ddd70	0.077082515
33	0x3dca8f56	0.098906204
34	0x3d0df19a	0.034654237
35	0x3cfc806b	0.030822953
36	0x3ad50d8c	0.0016254648
37	0x3b7a9361	0.0038234817
38	0x3d9c3186	0.07626633
39	0xbcc70753	-0.024295485
40	0xbcc2b0aa	-0.02376588
41	0x3c86d0ef	0.01645705
42	0xbbd7e820	-0.0065889508
43	0x3ccca40f	0.024980573
44	0xbd366eed	-0.04453938
45	0x3cda5bb9	0.026655065
46	0x3d25706a	0.04039041
47	0xbd446d84	-0.047956005
48	0x3b6a1b2e	0.0035721767
49	0xbddf6fde	-0.10910009
50	0xbcd9893c	-0.026554696
51	0xbd120053	-0.03564484
52	0x3cdbe254	0.02684132
53	0xbd554980	-0.05207205
54	0xbca28a7f	-0.01984143
55	0xbb3be003	-0.0028667457
56	0xbd12c21c	-0.03582965
57	0xbccaa5a8	-0.024737194
58	0x3cfa4a83	0.030553108
59	0xbc82fa58	-0.015988514
60	0x3d180220	0.0371114
61	0xbd1faa0e	-0.038980536
62	0xbc6bc380	-0.014389873
63	0x3ce48959	0.027897524
64	0x3bb49dd9	0.005511981
65	0x3d3fa49e	0.04678785
66	0xbd041c43	-0.032253515
67	0xbcdb8c4b	-0.026800295
68	0xbce36c9b	-0.027761748
69	0x3cbb90d1	0.022896202
70	0xbcb1a8af	-0.02168688
71	0x3cbf6b24	0.023366518
72	0x3b35cd79	0.002774088
73	0xbc4a2cc0	-0.012339771
74	0xbb0b8dcc	-0.0021294234
75	0xbcf5bbe8	-0.029996827
76	0xbcb8ecb3	-0.022573804
77	0x3cd3e6a0	0.025866807
78	0xbb9dbe11	-0.0048139174
79	0x3d06d82a	0.032920994
80	0xbc990d74	-0.018683173
81	0x3a9dbf3c	0.0012035142
82	0x3cc421da	0.023941923
83	0xbca698e9	-0.020336585
84	0xbccbd69d	-0.024882609
85	0x3c54b972	0.012983667
86	0x3c391f40	0.0112989545
87	0xbcde4fba	-0.027137626
88	0xbc61bfc1	-0.013778628
89	0xbc148998	-0.009066008
90	0x3ccdd9de	0.025128301
91	0xbc9590fd	-0.018257612
92	0xbc5334f5	-0.012891044
93	0x3c3e6925	0.011621748
94	0xbd1ca1c1	-0.038240198
95	0xbc44e53d	-0.012017545
96	0x3cbddc91	0.023176463
97	0xbb314daf	-0.002705436
98	0xbd147b6f	-0.036250528
99	0x3ca5c508	0.020235553
100	0xbe10a2dc	-0.14124626
101	0x3c9b6133	0.018967247
102	0xbd744f6c	-0.059646055
103	0xbd223518	-0.039601415
104	0x3c950f8b	0.018195888
105	0xbdc16077	-0.09442227
106	0xbdce99f9	-0.10087962
107	0xbcd67fef	-0.02618405
108	0xbc6a5e58	-0.01430472
109	0xbdba58ec	-0.09098992
110	0xbd7700e5	-0.060303587
111	0xbd399acd	-0.045313645
112	0xbd987a6e	-0.074452266
113	0x3d3aabb2	0.045573898
114	0xbdf7e961	-0.1210506
115	0xbaba8d09	-0.0014232706
116	0xbc04449e	-0.008073
117	0xbd596dc4	-0.053083196
118	0xbcd5c97a	-0.026097048
119	0xbda2ab71	-0.07942856
120	0xbcd8d6b9	-0.026469575
121	0xbd3f9112	-0.04676921
122	0xbdeaf29b	-0.114720546
123	0xbddd264c	-0.1079832
124	0xbd9b6c0b	-0.07588967
125	0x3ccbb90f	0.024868516
126	0x3da59178	0.080843866
127	0x3d2c2f0b	0.04203705
128	0xbd4ecdcb	-0.05048923
129	0xbe0756ce	-0.13216707
130	0x3de8c0b4	0.1136488
131	0xbc43c7e7	-0.011949516
132	0xbb9d594c	-0.004801905
133	0xbca3b391	-0.019983085
134	0xbd9717f6	-0.07377617
135	0x3dfec310	0.12439549
136	0xbc8c39fa	-0.01711749
137	0x3d826af1	0.06368054
138	0x3d90486a	0.07045062
139	0xbb53aac7	-0.0032297836
140	0x3dc55c6e	0.0963677
141	0xbc10a16c	-0.0088275485
142	0x3c928386	0.01788498
143	0xbc9172b0	-0.017754883
144	0x3d8f1839	0.06987042
145	0x3c8335aa	0.0160168
146	0xbcdc7730	-0.026912302
147	0xbcf82fc2	-0.03029621
148	0xbd8be16a	-0.06830104
149	0x3d8ff683	0.0702944
150	0xbcebe4fe	-0.028795715
151	0x3d5350aa	0.0515906
152	0x3c4dcaa3	0.012560519
153	0x3d91745a	0.071022704
154	0xbbe764e4	-0.0070615876
155	0x3d114f3b	0.03547595
156	0x3ce513bd	0.027963514
157	0xbca5b3b4	-0.02022729
158	0x3d53e868	0.05173531
159	0xbd0bd4cf	-0.034138497
160	0x3d028a3a	0.031870104
161	0xbc078cd5	-0.008273323
162	0xbb7f99ff	-0.00390017
163	0x3d84c7c1	0.064834125
164	0xbbd95685	-0.0066326284
165	0xbd3e5f7f	-0.04647779
166	0xbd2a3e7f	-0.041563507
167	0x3be100d2	0.006866553
168	0x3bc194e5	0.005907642
169	0xbcb707f1	-0.022342654
170	0xbd3ea50a	-0.046544112
171	0x3cfc517d	0.030800575
172	0xbd434f21	-0.047682885
173	0xbbafc6ba	-0.005364266
174	0x3c1936e0	0.009351462
175	0x3d56806a	0.05236856
176	0xbdc0cee5	-0.09414462
177	0xbca0b1b9	-0.019615995
178	0x3dc0c656	0.094128296
179	0x3d2dee7a	0.042463757
180	0x3db0861f	0.086193316
181	0x3dac1e08	0.084041655
182	0x3d1e3e6f	0.03863376
183	0x3db04a9f	0.08607983
184	0x3cd6a2c5	0.026200661
185	0x3cb5d108	0.0221944
186	0xbd31e592	-0.043431826
187	0xbd0d2a74	-0.034464315
188	0x3d9887b0	0.07447755
189	0xbd6e8ee6	-0.058241747
190	0xbde5772b	-0.1120437
191	0xbcabf6d8	-0.020991728
192	0x3d993058	0.07479924
193	0x3d9da726	0.07697897
194	0xbdbeac5d	-0.093102194
195	0xbdf33b12	-0.11876501
196	0x3d52d169	0.05146924
197	0x3d31227f	0.04324579
198	0xbcd7a622	-0.026324335
199	0x3df761c3	0.120791934
200	0x3c74ebed	0.014948827
201	0x3c4236c8	0.011853881
202	0x3d8d3286	0.06894402
203	0x3dba52e9	0.09097845
204	0x3d57fa0c	0.052728698
205	0x3e028714	0.1274684
206	0x3d06ad85	0.032880325
207	0x3d9f6b6e	0.077841625
208	0x3ceb91c0	0.028756022
209	0x3cf255ce	0.02958193
210	0x3df91b1f	0.12163376
211	0x3cf5b8d0	0.029995352
212	0x3c8dcca5	0.017309496
213	0x3d227e5d	0.03967129
214	0x3d557e10	0.052122176
215	0x3e2dd199	0.16974486
216	0x3d41a58b	0.047277015
217	0x3c060941	0.008180917
218	0xbb23a5a6	-0.002497056
219	0x3d6b18a1	0.057396535
220	0x3d9bbc53	0.07604279
221	0xbe16825c	-0.14698166
222	0xbdbe2076	-0.09283535
223	0xbd828d85	-0.06374649
224	0x3d5cff0e	0.053954177
225	0xbd4885f2	-0.048955865
226	0x3ba02203	0.004886867
227	0xbba97727	-0.005171675
228	0x3c8bba07	0.017056478
229	0x3da415b0	0.08011949
230	0xbc3df58e	-0.011594189
231	0xbbd23f3d	-0.00641623
232	0xbd7acecd	-0.061232377
233	0x3a955d07	0.0011395522
234	0x3dc9492a	0.09828408
235	0x3d14a906	0.036294006
236	0xbce1a08c	-0.027542375
237	0xb95cd495	-0.00021060028
238	0x3ce72902	0.028217796
239	0x3c39c095	0.011337419
240	0x3d15d04c	0.0365756
241	0xbd00a6f4	-0.03140922
242	0xbd929517	-0.07157343
243	0x3b6b9775	0.003594843
244	0xbcc1a0c8	-0.023636237
245	0x3c1b98a9	0.009496846
246	0x3cc17e29	0.023619728
247	0xbd3e1a80	-0.04641199
248	0xbd8981a0	-0.06714177
249	0xbd075291	-0.033037726
250	0x3dd3bbc0	0.10338545
251	0x3bd88b1c	0.00660838
252	0xbc263d60	-0.010146469
253	0x3b99f473	0.00469833
254	0x3d9dcfb6	0.07705633
255	0x3d9e5b23	0.07732227

fc1.bias f4 [10]
0	0x3dc367f6	0.09541313
1	0x3c8fa7c4	0.017536052
2	0xbd372da4	-0.04472126
3	0x3bc18a03	0.005906345
4	0xbd077156	-0.03306707
5	0xbd3a01b6	-0.045411788
6	0x3bb596f9	0.005541679
7	0x3d6107a3	0.054938924
8	0x39c705a5	0.00037960443
9	0x3d75c2b9	0.060000155
