1_5_CNN_Layers/saved_models/fashion_net_ex.pt (torch_old, 111125 bytes, 8 tensors)

conv1.weight f4 [10, 1, 3, 3]
0	0xbef8cb8c	-0.48592794
1	0xbf0b032f	-0.5430173
2	0x3ec6f886	0.38861483
3	0xbe2c0805	-0.16799934
4	0x3e9d0fff	0.30676267
5	0xbda2bda3	-0.079463266
6	0x3ed7fe31	0.4218612
7	0x3e853dbc	0.26023662
8	0xbe15329c	-0.14570087
9	0x3f0cee26	0.55050886
10	0xbf2e016c	-0.6797092
11	0xbfa146b0	-1.2599697
12	0x3f9cc3eb	1.224729
13	0xbdd404f8	-0.1035251
14	0xbf323ef3	-0.696273
15	0x3f85c4b0	1.0450649
16	0x3eaed2a9	0.34145096
17	0xbe1fe1f1	-0.15613534
18	0x3eafcb44	0.34334767
19	0x3f05d10b	0.522721
20	0x3f1ca370	0.61186886
21	0x3ec4587b	0.38348755
22	0x3ecaf39e	0.3963899
23	0x3ebeed06	0.3729021
24	0x3f1ed51f	0.62043947
25	0x3f272488	0.6529012
26	0x3d883e26	0.06652479
27	0xbf5739ea	-0.84072745
28	0x3dad55c1	0.08463622
29	0x3ee3fe67	0.4453003
30	0xbf3eb373	-0.7449257
31	0x3f624b8f	0.88396543
32	0x3efc562b	0.4928449
33	0x3edf36e7	0.43596575
34	0x3f2a13ee	0.6643666
35	0x3ef1d7e8	0.47235036
36	0x3f699b8e	0.9125298
37	0x3f62ccdc	0.8859384
38	0xbdf1c1ec	-0.11804566
39	0xbb3623ab	-0.0027792256
40	0x3ea516d3	0.32243976
41	0x3d3b7af5	0.045771558
42	0xbef30e6c	-0.4747194
43	0x3ea8a719	0.32939985
44	0x3d18f635	0.037344176
45	0xbdce608b	-0.10077008
46	0x3ec7379c	0.38909614
47	0xbe89fca5	-0.26950565
48	0x3e244e91	0.16045596
49	0x3f770715	0.9649518
50	0xbf911eaa	-1.1337483
51	0x3e31d12d	0.1736495
52	0x3f6df21c	0.92947555
53	0xbf8e5a32	-1.1121275
54	0xbf970a6d	-1.1800057
55	0xbf852d2f	-1.0404414
56	0xbea500af	-0.32227084
57	0xbf99fa73	-1.2029556
58	0xbf638041	-0.88867575
59	0xbe048941	-0.12942983
60	0xbf0f59cd	-0.559964
61	0xbdb4d1c0	-0.08829069
62	0x3ea09824	0.31366074
63	0xbf2b9ae5	-0.67033225
64	0xbf0a1f7c	-0.5395429
65	0xbeb4e4f6	-0.35330933
66	0x3f1db378	0.6160197
67	0x3e8fd498	0.28091884
68	0x3ec87c96	0.39157552
69	0x3de4b7cd	0.1116787
70	0x3eb7c58d	0.35892907
71	0x3ee902fe	0.45510095
72	0xbd338860	-0.04383123
73	0xbe55d94b	-0.20883672
74	0xbda82bab	-0.08211454
75	0xbe6a4e73	-0.22881489
76	0xbd9893b2	-0.07450046
77	0xbe26d329	-0.16291489
78	0x3d869e10	0.06573117
79	0xbe9b43f2	-0.30325276
80	0x3ea6bffe	0.32568353
81	0xbe430832	-0.19046095
82	0x3e75948d	0.23982449
83	0xbe8cc3cb	-0.27493128
84	0xbe220e56	-0.15825781
85	0xbe7f40d8	-0.2492708
86	0x3e9766ed	0.29570714
87	0x3cd1e869	0.025623517
88	0xbe4b8a95	-0.19877084
89	0x3e43019e	0.19043586

conv1.bias f4 [10]
0	0xbd4093d0	-0.047015965
1	0xbe141b4c	-0.14463538
2	0xbaaea7ef	-0.0013325195
3	0xbb5b531a	-0.003346628
4	0x3b3c8652	0.0028766585
5	0xbcca775f	-0.024715124
6	0x3f1c13e1	0.6096783
7	0xbe097c10	-0.13426232
8	0xbddcbfe2	-0.10778786
9	0xbe917cda	-0.28415567

conv2.weight f4 [20, 10, 3, 3]
0	0x3cfae248	0.030625477
1	0xbd9015c8	-0.070354044
2	0x3db9cc81	0.09072209
3	0xbd66b027	-0.056320336
4	0xbdbe36f8	-0.09287828
5	0xbbc64576	-0.006050761
6	0xbdbaaf97	-0.09115522
7	0x3d5fec7b	0.054668885
8	0x3db61529	0.08890755
9	0x3d89386e	0.06700216
10	0xbdc7b1e2	-0.09750725
11	0x3c7c0410	0.015381828
12	0x3d1b2b21	0.037882928
13	0x3db244a3	0.08704498
14	0xbd189973	-0.037255716
15	0xbce66a8b	-0.028126976
16	0x3b5766ec	0.0032867743
17	0x3936a056	0.00017416602
18	0xbd79492e	-0.060860805
19	0x3c7b8a0b	0.015352736
20	0x3d52b8fa	0.05144594
21	0xbd92e154	-0.07171884
22	0xbd5789aa	-0.05262152
23	0xbd9dfe1e	-0.07714485
24	0x3cc3d72a	0.02390631
25	0xbbe9640f	-0.0071225236
26	0xbdc47618	-0.09592837
27	0x3d305b76	0.043055974
28	0x3c661439	0.014042907
29	0xbd04634b	-0.032321256
30	0xbdd1b8f0	-0.10240352
31	0x3c83e596	0.016100686
32	0x3cb537b7	0.022121293
33	0xbd69d02c	-0.057083294
34	0x3dc885ba	0.09791131
35	0x3c8b1038	0.016975507
36	0x3cf486a0	0.02984935
37	0x3c958173	0.018250203
38	0x3c8c1604	0.017100342
39	0xbd9f04cb	-0.07764586
40	0xbdc1b12b	-0.0945762
41	0x3bc9928a	0.006151502
42	0xbdcdba14	-0.10045257
43	0x3d7cd57f	0.061727043
44	0x3c6218e9	0.013799884
45	0x3d8e97c1	0.069625385
46	0x3c2723a9	0.010201373
47	0xbdbb74ec	-0.091531605
48	0xbc76261b	-0.0150237335
49	0xbd76c14e	-0.060242943
50	0xbd3abea3	-0.04559196
51	0xbd5c0b34	-0.05372162
52	0x3b48b966	0.0030628084
53	0x3c4fabc8	0.012675233
54	0xbd7bed1e	-0.06150543
55	0x3d6042af	0.054751094
56	0x3bc4418e	0.00598926
57	0xbd2d684c	-0.042335793
58	0xbb9f7d3d	-0.0048672245
59	0x3d9414d8	0.07230538
60	0xbde3c038	-0.11120647
61	0xbbc0d6f2	-0.0058849985
62	0x3bb4512c	0.0055028405
63	0xbdd1f70c	-0.102521986
64	0xbd30e98c	-0.043191478
65	0xbd93ca6d	-0.07216344
66	0xbc5498d9	-0.012975895
67	0xbc95c904	-0.018284328
68	0x3ce2a9ce	0.02766886
69	0x3cdfdfea	0.02732845
70	0x3d3c850c	0.04602532
71	0xbcd54752	-0.026034985
72	0xbc664bf4	-0.014056195
73	0xbd7cb453	-0.061695408
74	0xbd6a4cb0	-0.05720204
75	0x3d323f72	0.043517537
76	0x3c337740	0.010953724
77	0x3da6f3e0	0.08151984
78	0xbd0e1f9f	-0.034698125
79	0x3d809371	0.06278122
80	0xbdd60da4	-0.104518205
81	0x3d08af42	0.033370264
82	0xbd0ef7a2	-0.03490413
83	0xbd4e86a2	-0.050421365
84	0x3d91552d	0.07096324
85	0x3d96ae35	0.07357446
86	0x3dbac9bb	0.09120508
87	0x3db68adc	0.08913204
88	0xbd8a6a49	-0.067585535
89	0x3c72bdf1	0.014815793
90	0x3e10fd61	0.14159156
91	0x3de95105	0.113924064
92	0x3df6aae0	0.120443106
93	0x3e39c309	0.18140806
94	0x3baec7e3	0.005333887
95	0x3d90e4e3	0.07074907
96	0x3dd44d99	0.10366363
97	0x3e15a581	0.14613916
98	0x3d8e0140	0.06933832
99	0xbcfedbcc	-0.031110667
100	0x3e48a021	0.19592334
101	0xbd30f615	-0.043203432
102	0xbdbfd581	-0.093668945
103	0xbd353d20	-0.044247746
104	0x3d7706b3	0.060309123
105	0x3e89e4ee	0.26932472
106	0xbe82d9f1	-0.255569
107	0xbe2cd4e5	-0.16878088
108	0x3efc56c7	0.49284956
109	0x3eeb0539	0.45902422
110	0xbe9c4640	-0.30522346
111	0x3e050847	0.12991439
112	0x3e9cd415	0.30630556
113	0xbd669b6c	-0.056300566
114	0xbf397aa5	-0.72452766
115	0xbf04942e	-0.51788604
116	0x3e5d7cf6	0.216297
117	0x3edf2ce1	0.43588927
118	0x3e3aa0c0	0.18225384
119	0xbda97f46	-0.082762286
120	0x3e1da4a8	0.15394843
121	0xbd939009	-0.07205207
122	0x3dc0ed70	0.094202876
123	0xbf46f462	-0.7771665
124	0xbe82082b	-0.25396857
125	0x3e40d93f	0.18832873
126	0x3eafa840	0.34308052
127	0x3e10857d	0.14113422
128	0xbe48746a	-0.19575658
129	0x3d521d42	0.051297434
130	0x3e8e061c	0.27739036
131	0xbda75e3e	-0.08172272
132	0xbe6b2ac5	-0.22965534
133	0xbe474035	-0.19458087
134	0x3e13dd92	0.14439991
135	0xbe1f3282	-0.15546611
136	0x3e293179	0.16522779
137	0x3d5ccaff	0.05390453
138	0xbe2164d1	-0.15761115
139	0xbdb32aeb	-0.0874842
140	0xbdbcad2c	-0.092127174
141	0xbd2c9326	-0.04213252
142	0xbec5f670	-0.3866458
143	0xbdde76ee	-0.10862528
144	0x3d61d927	0.055138733
145	0xbda143c5	-0.07874254
146	0x3d2fa193	0.0428787
147	0x3cfa0ff3	0.030525183
148	0x3d8a0f4d	0.067412
149	0x3d0aa865	0.033852
150	0xbd445810	-0.047935545
151	0x3e8dfe84	0.27733243
152	0x3d5bb809	0.053642306
153	0x3e916834	0.28399813
154	0x3e457317	0.19282185
155	0x3c13ff27	0.009033001
156	0x3d82aa49	0.063801356
157	0x3debd671	0.11515511
158	0x3deb4336	0.11487429
159	0xbe4d3e9c	-0.20043415
160	0x3e1e85af	0.15480684
161	0x3d8ea5a7	0.069651894
162	0xbd81d41c	-0.06339285
163	0x3dd3a247	0.10333686
164	0x3d3736a2	0.044729836
165	0xbd6f88ed	-0.058480192
166	0xbd8ac905	-0.06776623
167	0x3d2aa9ee	0.041665964
168	0x3d68a4ca	0.05679778
169	0xbd76d401	-0.060260776
170	0xbdca4ab0	-0.09877527
171	0x3da06b79	0.07832999
172	0xbd3e3673	-0.046438646
173	0x3dbb8302	0.09155847
174	0xbd39d97f	-0.045373436
175	0xbd9590ce	-0.0730301
176	0xbdc8d789	-0.09806735
177	0x3d893f32	0.06701507
178	0xbbb20db8	-0.0054337643
179	0xbd1a7d98	-0.03771743
180	0x3cfb9767	0.030711843
181	0x3d03118b	0.031999152
182	0xbd3f0e86	-0.04664471
183	0x3df3d931	0.1190666
184	0x3ce7f717	0.028316064
185	0x3d8a5270	0.06754005
186	0xbd51df00	-0.05123806
187	0x3e0aad89	0.13542761
188	0x3cd82a0f	0.026387243
189	0xbd762205	-0.060091037
190	0xbdc7e5ef	-0.09760653
191	0x3d3ecb1f	0.04658043
192	0xbd1412f1	-0.036150876
193	0x3d163783	0.036674034
194	0x3df98e3a	0.12185331
195	0x3b96f85c	0.0046072435
196	0x3d63f1a2	0.05565036
197	0x3eb48166	0.35254973
198	0xbd9c7180	-0.07638836
199	0xbd426ea2	-0.04746879
200	0x3e1c20bb	0.1524686
201	0x3f181094	0.59400296
202	0xbc764179	-0.015030258
203	0xbf0f724b	-0.5603377
204	0x3eb51fbd	0.35375777
205	0xbe3daf6b	-0.18523948
206	0xbf34a3a6	-0.7056221
207	0x3e00f6fa	0.12594214
208	0x3dd3c034	0.10339394
209	0x3e227c9d	0.15867849
210	0x3e8b2ffe	0.27185053
211	0xbd7e95a4	-0.062154427
212	0xbed64570	-0.41849852
213	0x3df54757	0.119764976
214	0xbbf1ffac	-0.007385215
215	0xbe62d240	-0.22150517
216	0xbe69193e	-0.22763535
217	0xbdc54953	-0.09633126
218	0x3a8fca78	0.0010970375
219	0x3e3b8765	0.18313368
220	0x3d4f49b4	0.0506074
221	0xbe423951	-0.18967177
222	0x3ea3b497	0.31973717
223	0xbde324c2	-0.11090995
224	0xbec2ace7	-0.3802254
225	0x3d088838	0.033333033
226	0x3d843b02	0.06456567
227	0xbd128dc9	-0.035779748
228	0x3ccea05a	0.025222946
229	0x3e696bb8	0.22794998
230	0x3dad1f4a	0.084532335
231	0xbdb9576b	-0.09049877
232	0x3bfc3568	0.007696796
233	0xbc2a33f4	-0.010388363
234	0x3e019fcb	0.12658612
235	0x3d413a2c	0.047174618
236	0x3d91ca90	0.07118714
237	0xbe0596f4	-0.13045865
238	0x3d7896f2	0.060690828
239	0x3e92e98f	0.28693816
240	0xbbcab4b5	-0.0061860927
241	0x3e12bf46	0.14330778
242	0x3edd8c09	0.432709
243	0xbd241d28	-0.040066868
244	0x3dae77eb	0.08518966
245	0xbd4e71e7	-0.050401594
246	0x3ded597f	0.11589336
247	0xbdc611ce	-0.09671365
248	0xbdeebe7e	-0.11657427
249	0x3c73022d	0.014832062
250	0xbd157bd7	-0.036495056
251	0x3d835eac	0.064145416
252	0x3adf3f4e	0.0017032416
253	0xbc1e88f4	-0.009676207
254	0x3da3ebe6	0.080039784
255	0xbba3e31c	-0.005001439

conv2.bias f4 [20]
0	0xbde9b722	-0.11411883
1	0xbe9eff11	-0.31053975
2	0xbd589194	-0.05287321
3	0xbe3004f3	-0.17189388
4	0x3e0caebb	0.1373853
5	0xbe9aef33	-0.3026062
6	0xbd9ebfaa	-0.07751401
7	0x3eecc463	0.4624358
8	0x3daf7da4	0.08568886
9	0x3cbf55b0	0.023356289
10	0xbe07e73f	-0.13271807
11	0x3d868d3d	0.06569908
12	0xbd4474d0	-0.047962964
13	0xbe832584	-0.2561456
14	0x3d695c1d	0.05697261
15	0x3ec51a0e	0.3849644
16	0x3e0833f6	0.13301072
17	0x3e4f7cf5	0.20262511
18	0x3e86b1ee	0.26307625
19	0x3e897f6e	0.26855034

fc1.weight f4 [50, 500]
0	0xbcd3ec8d	-0.025869632
1	0x3d1d955f	0.03847253
2	0xbd1062c4	-0.03525044
3	0x3d205967	0.03914776
4	0xbd27c6a8	-0.040960938
5	0x3ca5cfe3	0.02024073
6	0x3b9ddb5b	0.004817409
7	0xbd01184f	-0.031517323
8	0x3cebd3a8	0.028787449
9	0xbd0b2a08	-0.03397563
10	0x3cb8116b	0.022469243
11	0xba4ce5a5	-0.0007816202
12	0xbc753063	-0.01496515
13	0xbd1a6098	-0.037689775
14	0x3c408f6d	0.011752945
15	0x3cf3a461	0.029741468
16	0xbc59d020	-0.01329425
17	0x3ca914c2	0.02063978
18	0x3c8c8ba2	0.017156426
19	0x3bbb4cb4	0.005715931
20	0x3ce0529c	0.027383141
21	0x3cbdcb13	0.023168122
22	0x3c56edda	0.013118232
23	0xbd0a6334	-0.033786014
24	0x3b24e700	0.00251621
25	0x3b833078	0.0040035807
26	0x3dd95230	0.10611379
27	0xbbd310a5	-0.006441193
28	0xbaab9a75	-0.0013092296
29	0x3deb11e6	0.11478023
30	0xbc2d3985	-0.010572796
31	0x3d898fc4	0.06716874
32	0xbd423100	-0.04741001
33	0xbca671c7	-0.020317925
34	0x3dc37545	0.09543852
35	0xbda39d39	-0.07988972
36	0xbd00e05e	-0.031463973
37	0x3bfe1cb3	0.007754886
38	0x3c7ec1ce	0.015549136
39	0xbcb0858b	-0.021548053
40	0xbd0af946	-0.033929132
41	0x3b67a175	0.0035344039
42	0xbdc488bd	-0.09596393
43	0x3c919d5a	0.017775226
44	0xbd2325a9	-0.039830837
45	0x3e0af75a	0.1357092
46	0xbb36ab7f	-0.0027873216
47	0x3c81b9b6	0.015835624
48	0xbb1c47b6	-0.0023846454
49	0xbd74eb56	-0.059794746
50	0xbd32838a	-0.043582477
51	0x3ccfd438	0.025369748
52	0x3cb1ad62	0.02168912
53	0x3d857b2a	0.06517632
54	0x3dc6dc81	0.097100265
55	0xbd0a3b8d	-0.0337482
56	0xbd175f4c	-0.036956117
57	0x3e1d0f9a	0.15337983
58	0xbd72a3bf	-0.05923819
59	0xbcddb966	-0.027065944
60	0x3be6e5d0	0.0070464388
61	0xbd49c98e	-0.049264483
62	0x3d0660cf	0.032807168
63	0x3df2bea2	0.118527666
64	0x3dc7dbef	0.09758746
65	0x3c524712	0.012834327
66	0x3c931e5f	0.017958818
67	0x3d0c22ff	0.034213062
68	0xbd4d23af	-0.05008286
69	0x3db3d134	0.08780137
70	0x3d0a41bd	0.0337541
71	0xbc946e94	-0.018119134
72	0x3dc68b77	0.096945696
73	0x3d93680f	0.07197582
74	0x3ce70752	0.028201733
75	0xbe067a8b	-0.13132684
76	0x3c0573c5	0.008145277
77	0xbd70012f	-0.05859488
78	0x3dbdd0e7	0.092683606
79	0xbd93a77c	-0.072096795
80	0xbca974e8	-0.020685628
81	0xbd3d0f98	-0.04615745
82	0xbb8386ca	-0.004013871
83	0x3a83adad	0.0010046266
84	0xbb138fc1	-0.0022516104
85	0x3d5952f9	0.053057645
86	0x3dd85f3a	0.10565038
87	0x3d90c1d4	0.0706822
88	0x3d312973	0.04325242
89	0xbdc5a346	-0.096502826
90	0x3d758484	0.05994083
91	0xbc8d4cc8	-0.017248526
92	0x3ce3d98b	0.027813694
93	0xba5ca140	-0.0008416362
94	0x3d548d13	0.05189235
95	0xbd81beaa	-0.063351944
96	0x3dca13d3	0.098670624
97	0xbad5761d	-0.0016285811
98	0xbdafdb27	-0.08586722
99	0xbcecd6f2	-0.028911088
100	0x3dc03f35	0.09387056
101	0x3cfd6b30	0.0309349
102	0xbcf52eda	-0.029929567
103	0xbbf9e18f	-0.0076257656
104	0x3e480ff7	0.1953734
105	0xbd8f772c	-0.07005152
106	0xbd20700f	-0.039169367
107	0x3be97d41	0.007125527
108	0x3e094b85	0.13407715
109	0x3e08501d	0.13311811
110	0xbd9f17b8	-0.07768196
111	0x3cececff	0.028921602
112	0xbc399d75	-0.011329045
113	0x3d4525af	0.04813164
114	0x3b5e4665	0.003391647
115	0xbd1b3426	-0.03789153
116	0xbcf571ed	-0.02996155
117	0x3d242385	0.040072937
118	0xbc072c0d	-0.008250249
119	0x3d2de689	0.042456184
120	0x3d702815	0.058631975
121	0xbdb1d26c	-0.08682713
122	0xbd4a016e	-0.04931777
123	0xbdd638d2	-0.10460056
124	0xbc2ca6cc	-0.010537814
125	0xbdcc0f7f	-0.09963893
126	0xbd91eeb1	-0.07125605
127	0x3d14d7d9	0.03633866
128	0xbaabcf94	-0.0013108128
129	0x3b125077	0.0022325793
130	0x3db50da4	0.08840492
131	0xbd9b9e9f	-0.07598614
132	0xbd1beb65	-0.038066287
133	0xbc6321a2	-0.013862999
134	0x3e048a1f	0.12943314
135	0x3dc4cb93	0.09609141
136	0x3bebc455	0.0071950355
137	0x3dca9e2c	0.0989345
138	0x3da2ef68	0.07955819
139	0x3e23a7db	0.15982
140	0xbd5a2b27	-0.05326381
141	0xbd812a4a	-0.06306894
142	0x3d9a0aee	0.07521616
143	0x3d853d78	0.06505865
144	0x3d17af40	0.037032366
145	0xbd6d0e59	-0.05787501
146	0x3cd3b87b	0.025844803
147	0x3b5d91e1	0.0033808874
148	0x3cc037aa	0.023464043
149	0x3d88802b	0.06665071
150	0x3d1365d2	0.035985775
151	0xbd29ec1a	-0.04148493
152	0xbcd46058	-0.025924847
153	0xbccb68d2	-0.024830256
154	0xbc8bcbca	-0.017064948
155	0x3c4bb156	0.012432417
156	0xbce979bf	-0.028500436
157	0xbd062059	-0.032745693
158	0xbc3e0ae9	-0.011599281
159	0xbd0a70e8	-0.033799082
160	0xbd068bce	-0.032848172
161	0x3cb36169	0.021897035
162	0xbb692b91	-0.0035578946
163	0x3d31f77b	0.043448906
164	0xbd231480	-0.039814472
165	0x3c9cadba	0.019125808
166	0x3be19962	0.0068847397
167	0x3d41cf4b	0.04731683
168	0x3d4bfa89	0.049799476
169	0xbb9f86d0	-0.004868366
170	0x3d087c3b	0.0333216
171	0xbca46765	-0.020068834
172	0x3d360b07	0.04444411
173	0x3d5fb047	0.05461147
174	0x3ce27e8a	0.02764823
175	0xbd1f2799	-0.038856123
176	0xbddef40c	-0.10886392
177	0x3ba43787	0.005011502
178	0xbdd6a00c	-0.10479745
179	0x3c4a337c	0.012341376
180	0xbd32e4b8	-0.043675154
181	0xbe0fb3ad	-0.14033385
182	0xbcb058d8	-0.021526739
183	0xbddbbf43	-0.1072984
184	0xbdce2822	-0.100662485
185	0x3cec89d5	0.028874317
186	0xbdc26846	-0.09492545
187	0xbd8b2c8f	-0.06795608
188	0xbd889b9c	-0.06670305
189	0xbe148ef6	-0.1450766
190	0x3c406b3c	0.011744317
191	0xba80b907	-0.0009820767
192	0xbdd19148	-0.10232788
193	0xbd0ea481	-0.034824852
194	0xbda81373	-0.08206835
195	0xbb8ed32a	-0.004358669
196	0x3cb3231e	0.021867331
197	0x3c8fe2d4	0.017564215
198	0x39418f63	0.0001845933
199	0xbd15dc33	-0.03658695
200	0xbe4967a1	-0.19668438
201	0xbe1d9975	-0.1539057
202	0xbd6d8221	-0.05798543
203	0x3c97af9b	0.018516352
204	0x3d99c9cf	0.07509195
205	0xbdff621c	-0.12469885
206	0x3c51609c	0.012779381
207	0x3d4b40c7	0.049622323
208	0xbd98f2b5	-0.07468168
209	0xbe2ba53e	-0.16762254
210	0x3d148015	0.03625496
211	0xbd964fc3	-0.07339432
212	0xbd8a380f	-0.067489736
213	0xbb0de5d8	-0.002165189
214	0x3bc1b8b1	0.0059119095
215	0x3dd1117a	0.102084115
216	0x3cd01530	0.025400728
217	0x3b42b3a7	0.0029709132
218	0x3d49130c	0.04909043
219	0xbcf3f993	-0.029782092
220	0x3d5a87c4	0.053352132
221	0x3d04b145	0.03239562
222	0x3ced0f45	0.028937945
223	0xbd3ad9ac	-0.045617744
224	0xbdaa92d7	-0.08328789
225	0xbd114d10	-0.035473883
226	0x3d7c4edd	0.061598647
227	0xbcb2b8e8	-0.021816686
228	0x3da3f606	0.080059096
229	0xbbf159cd	-0.0073654414
230	0xbd6f337a	-0.0583987
231	0xbc4c964e	-0.012487007
232	0x3b12ce84	0.0022400925
233	0x3da54c58	0.08071202
234	0x3d19d466	0.037556075
235	0x3c012ed4	0.0078847
236	0x3ce0ff4d	0.027465487
237	0xbce3a966	-0.027790736
238	0x3cbafc50	0.02282539
239	0xbbf3ac37	-0.007436301
240	0x3aa88f2d	0.0012860053
241	0x3b3b4872	0.0028577116
242	0x3c8f5398	0.017495915
243	0xbd792ec4	-0.060835615
244	0xbd3b6a45	-0.045755643
245	0x3bac0e89	0.005250756
246	0x3c5694b9	0.013096982
247	0x3b939087	0.004503313
248	0x3b9603d3	0.0045780926
249	0x3b9a5943	0.004710348
250	0xbe8f0186	-0.2793085
251	0xbd08794b	-0.0333188
252	0xbd805bf1	-0.062675364
253	0x3d863507	0.06553083
254	0xbd7adf2f	-0.061248
255	0xbe368119	-0.17822684

fc1.bias f4 [50]
0	0xbd19b3cf	-0.037524994
1	0xbd025fec	-0.03182976
2	0xbd72a27c	-0.05923699
3	0x3d803412	0.062599316
4	0x3df5f8c6	0.120103404
5	0x3c731331	0.014836119
6	0xbd8b536d	-0.068030216
7	0xbd462e4f	-0.048384007
8	0x3cb7a720	0.022418559
9	0x3d82e3b8	0.0639109
10	0xbd0a0975	-0.033700425
11	0x3dfc85b7	0.123301916
12	0x3d0387b4	0.03211184
13	0x3e39787b	0.18112366
14	0x3e1908a8	0.14944708
15	0x3b10eebd	0.0022114955
16	0x3da9a80b	0.08284005
17	0x3c84f3c2	0.016229514
18	0x3d82ad24	0.0638068
19	0x3d4746ef	0.048651632
20	0x3d841801	0.06449891
21	0x3df5da80	0.12004566
22	0x3d1419ec	0.036157534
23	0x3d8ab3ad	0.06772552
24	0x3ddefec7	0.10888439
25	0xbd72e418	-0.05929956
26	0x3c9aa247	0.018876208
27	0x3d87759c	0.06614229
28	0xbd25b1a8	-0.04045263
29	0x3d4c540d	0.049884845
30	0x3db9ca9d	0.090718485
31	0x3dd3237a	0.10309501
32	0x3db22acf	0.08699571
33	0x3da35ada	0.07976313
34	0x3e311a77	0.17295252
35	0x3d6916e2	0.05690659
36	0x3769b901	1.3930957e-05
37	0x3c7963e5	0.015221571
38	0x3b6c7ec5	0.0036086303
39	0x3cbcb3c0	0.02303493
40	0x3d86e56d	0.06586728
41	0x3e83e529	0.25760773
42	0x3d3cc4dd	0.04608618
43	0x3d9be7b6	0.07612555
44	0x3d995ad9	0.07488031
45	0xbce84115	-0.028351346
46	0x3c2801f5	0.010254373
47	0x3dce125a	0.10062094
48	0x3d021818	0.03176126
49	0xbd418425	-0.047245163

fc2.weight f4 [10, 50]
0	0xbdef662f	-0.11689412
1	0xbe924dd4	-0.28575003
2	0xbe452e28	-0.19255888
3	0xbe552ca3	-0.20817809
4	0x3ebeaac2	0.37239653
5	0x3e07c1e2	0.13257554
6	0xbdb08bed	-0.08620439
7	0xbe0a20cf	-0.13489078
8	0xbc75927e	-0.01498854
9	0x3e72753e	0.23677537
10	0xbde0970e	-0.109663114
11	0x3e28186c	0.16415566
12	0x3e176393	0.14784078
13	0x3e94b41d	0.29043666
14	0xbe695c36	-0.22789082
15	0x3ebaa53e	0.36454195
16	0xbdba3d50	-0.09093726
17	0xbbf7e462	-0.007565067
18	0xbdf57f54	-0.119871765
19	0xbe17d26a	-0.1482636
20	0x3e8625c3	0.26200685
21	0xbead3025	-0.33825794
22	0x3e0d821a	0.13819161
23	0xbdebed0d	-0.11519823
24	0x3e2d0539	0.16896524
25	0xbda49dc8	-0.08037907
26	0x3df305a0	0.11866307
27	0x3eb3839d	0.3506135
28	0x3eb39810	0.35076952
29	0xbe16176d	-0.14657374
30	0xbe94f8ac	-0.29095972
31	0x3d28ed6a	0.04124204
32	0xbe32c487	-0.17457782
33	0xbe0f49be	-0.13992974
34	0x3ea01f22	0.31273752
35	0x3ea19065	0.31555477
36	0x3eabcb05	0.3355333
37	0x3dca5572	0.09879579
38	0x3d0dd676	0.034628354
39	0xbe3d8637	-0.1850823
40	0xbe4707fa	-0.19436637
41	0x3e357977	0.17722116
42	0x3d2d06f3	0.042242955
43	0x3f09b607	0.53793377
44	0x3e961cb1	0.29318765
45	0x3eace399	0.33767393
46	0xbdeb2349	-0.114813395
47	0xbec5d9f1	-0.3864284
48	0x3eab7a64	0.33491814
49	0xbde5bb2f	-0.11217343
50	0x3e9f909c	0.31165016
51	0xbf07b538	-0.5301089
52	0xbd1da3b7	-0.03848621
53	0x3d1f4a72	0.038889356
54	0xbec462b8	-0.38356566
55	0xbe4b696d	-0.19864435
56	0x3ecf7bd6	0.40524167
57	0x3eae4b6b	0.34041914
58	0xbdef120f	-0.11673366
59	0xbda5bb2d	-0.080923416
60	0xbdd04836	-0.10170023
61	0x3ecb1c87	0.39670202
62	0xbd8ebaa0	-0.0696919
63	0xbea7375d	-0.32659426
64	0xbe9a911f	-0.30188844
65	0x3ecad2c3	0.39613923
66	0xbdfcd6f4	-0.123456866
67	0xbe2ede4d	-0.17076989
68	0x3c659d7e	0.0140146
69	0xbef10d86	-0.4708063
70	0x3e5b5ea8	0.21422827
71	0xbec94d45	-0.39316764
72	0xbe95af61	-0.29235366
73	0x3f151a69	0.58243424
74	0xbec3f58e	-0.3827328
75	0xbda32e2d	-0.07967792
76	0xbd85be13	-0.065303944
77	0xbe4a272e	-0.19741508
78	0x3edc7e5c	0.43065155
79	0x3ed6329c	0.41835487
80	0x3e221ebb	0.15832035
81	0xbe899fa0	-0.26879597
82	0xbed3d3f0	-0.41372633
83	0xbe881c7d	-0.26584235
84	0xbc919206	-0.017769825
85	0xbe981fcf	-0.29711768
86	0xbe4903b3	-0.19630317
87	0x3ecb983f	0.39764592
88	0x3e82c787	0.25542852
89	0xbe3442e3	-0.1760364
90	0xbe5a6c56	-0.2133039
91	0x3e91f2c7	0.28505537
92	0xbdc3b15c	-0.09555313
93	0xbe83a301	-0.257103
94	0xbe88e9a1	-0.26740745
95	0xbe380ec8	-0.17974389
96	0x3e73e9c4	0.23819643
97	0xbe97f39a	-0.2967804
98	0x3eaec302	0.34133154
99	0x3eae29e8	0.34016347
100	0xbe12f3f0	-0.14350867
101	0xbe23c956	-0.15994772
102	0x3e6585ed	0.2241437
103	0xbd1a0ba5	-0.03760876
104	0xbe63e77a	-0.2225627
105	0x3e1cbab2	0.15305594
106	0x3e900c50	0.28134394
107	0xbd9e2376	-0.077216074
108	0xbe3e40bc	-0.18579382
109	0x3e9ae584	0.30253232
110	0x3d34ad3d	0.044110525
111	0x3e7fa465	0.24965055
112	0xbe83b85f	-0.257266
113	0x3ed93a9d	0.4242753
114	0xbea95363	-0.33071432
115	0x3e9eddcd	0.31028596
116	0xbe4da7b9	-0.20083512
117	0xbe448817	-0.19192539
118	0x3ed52bff	0.4163513
119	0xbdfa63b7	-0.1222605
120	0x3bde8162	0.006790326
121	0xbe5b536d	-0.21418543
122	0xbecc902d	-0.39953747
123	0xbc9f1b9b	-0.019422343
124	0x3e4cedaa	0.20012537
125	0xbdf114e4	-0.11771563
126	0xbe32c7c9	-0.17459024
127	0x3eab26eb	0.3342813
128	0xbdfb1370	-0.12259567
129	0xbe6f127c	-0.23346895
130	0xbeca8b78	-0.3955953
131	0x3e181a8d	0.14853878
132	0x3e4c92e2	0.19977906
133	0x3ec12070	0.3772006
134	0x3ea17607	0.3153536
135	0x3e975b04	0.29561627
136	0x3ea1dd46	0.3161413
137	0xbe97085e	-0.2949857
138	0x3e9f827f	0.31154248
139	0x3ed8b0cb	0.42322382
140	0xbd85c572	-0.065318
141	0x3e6621ed	0.22473879
142	0xbe0d62aa	-0.13807169
143	0x3d470d6d	0.04859679
144	0xbe5046e8	-0.20339549
145	0xbdbc2848	-0.091873705
146	0xbe2a11ad	-0.16608305
147	0x3e95ad2c	0.29233682
148	0xbe8f209a	-0.2795456
149	0xbea123fc	-0.31472766
150	0x3ec21b62	0.37911516
151	0x3d092e2e	0.033491306
152	0xbd4d73fa	-0.050159432
153	0xbe2148f3	-0.15750484
154	0xbd501e6a	-0.050810255
155	0x3d74a806	0.059730552
156	0x3d662325	0.05618586
157	0x3e973ced	0.2953867
158	0xbdd01f95	-0.10162274
159	0xbcc02377	-0.023454411
160	0xbd849898	-0.064744174
161	0xbe808c15	-0.25106874
162	0xbe5a9b8d	-0.213484
163	0x3e98f86b	0.29877028
164	0x3e949d23	0.29026136
165	0x3eb9bebc	0.3627833
166	0xbe312758	-0.17300165
167	0xbe86622b	-0.2624677
168	0xbe91b50a	-0.28458434
169	0x3e974382	0.29543692
170	0xbe7a4f7a	-0.2444438
171	0x3e6c9c11	0.2310641
172	0xbeda5d88	-0.42649484
173	0xbea0cf64	-0.31408226
174	0x3e4bc86d	0.19900675
175	0xbd07bf21	-0.03314126
176	0xbe5d9e09	-0.21642317
177	0x3ea7a7ee	0.32745308
178	0x3ea551f4	0.32289088
179	0x3ebb19f4	0.36543238
180	0xbdcb888e	-0.09938155
181	0x3e492568	0.19643176
182	0xbd96156a	-0.07328303
183	0x3ed6c042	0.41943556
184	0x3e9639c6	0.29340953
185	0xbe016bc1	-0.12638761
186	0xbe6f846f	-0.23390363
187	0x3eb49973	0.35273322
188	0xbd376dc5	-0.04478242
189	0x3ec3caea	0.3824075
190	0xbda50882	-0.08058263
191	0xbe8ea56a	-0.27860576
192	0xbdf098e5	-0.11747912
193	0xbc17ded1	-0.009269432
194	0x3e8916c0	0.2677517
195	0x3eb2bc83	0.34909448
196	0x3e71b7ac	0.23605222
197	0xbee040f8	-0.43799567
198	0x3e8de001	0.27709964
199	0xbe4e70a0	-0.2016015
200	0xbe06095f	-0.13089512
201	0x3e1edf53	0.15514879
202	0xbc1fb9fd	-0.009748933
203	0xbec72a23	-0.38899335
204	0xbe8cbbd6	-0.27487057
205	0x3e7d630b	0.24744813
206	0x3e9a98ce	0.30194706
207	0x3e9670f3	0.29383048
208	0x3e9e5928	0.30927396
209	0xbe424770	-0.18972564
210	0xbdd55a15	-0.104175724
211	0xbeb88d1d	-0.3604516
212	0xbe9f9f91	-0.31176427
213	0xbe0d7cd8	-0.13817155
214	0xbef06159	-0.4694927
215	0x3eb739b9	0.35786226
216	0xbda47ce2	-0.08031632
217	0xbe3c5378	-0.18391216
218	0x3edeaa70	0.43489408
219	0x3e5966a3	0.21230559
220	0xbea6d3a3	-0.3258334
221	0xbeca4c84	-0.39511502
222	0xbeb8cca3	-0.36093625
223	0xbe2e64d7	-0.17030655
224	0xbe8725c8	-0.26396012
225	0xb9d22e91	-0.00040089016
226	0xbc8bcc8b	-0.017065307
227	0x3eb1ac8f	0.34701964
228	0x3ebd2319	0.3694084
229	0x3c652c6e	0.013987644
230	0x3d9f58bc	0.077805966
231	0xbe6e4f3f	-0.23272417
232	0x3e7b0374	0.24513036
233	0x3ecbc5ab	0.39799246
234	0xbe254da7	-0.16142903
235	0x3ebaa7ad	0.3645605
236	0x3e9f18c6	0.31073588
237	0x3d8e9458	0.06961888
238	0x3eab1a5e	0.33418554
239	0x3ed6d25f	0.41957375
240	0xbe0d2420	-0.13783312
241	0xbec94a27	-0.39314386
242	0xbdde9a6d	-0.10869298
243	0xbe67b661	-0.22628166
244	0xbe0f87ec	-0.14016694
245	0xbdc48cd9	-0.09597177
246	0x3e603ceb	0.21898238
247	0x3ea825d9	0.32841375
248	0xbeaff0fe	-0.3436355
249	0x3e61185b	0.21981947
250	0x3ee20d7a	0.44150907
251	0x3eaa0b55	0.3321177
252	0x3f1df06a	0.6169497
253	0xbe83563b	-0.25651726
254	0xbf0a9e33	-0.5414764
255	0xbeadab22	-0.33919626

fc2.bias f4 [10]
0	0x3e926c1d	0.2859811
1	0xbea82ffd	-0.32849112
2	0x3e9bc148	0.304209
3	0x3e62e37a	0.22157088
4	0xbe5a9fda	-0.21350041
5	0xbe848eb8	-0.25890136
6	0x3f223dd8	0.63375616
7	0x3e5db09c	0.21649402
8	0xbf0a4f8d	-0.54027635
9	0xbea9326f	-0.3304629
